…
   "execution_count": 47,
   "metadata": {},
   "outputs": [],
   "source": [
    "input_dim = 9\n",
    "epochs = 100\n",
    "batch_size = 60\n",
    "samples = 100"
   ]
  },
  {
   "cell_type": "code",
   "execution_count": 89,
   "metadata": {},
   "outputs": [
    {
     "name": "stdout",
     "output_type": "stream",
     "text": [
      "_________________________________________________________________\n",
      "Layer (type)                 Output Shape              Param #   \n",
      "=================================================================\n",
      "dense_24 (Dense)             (None, 512)               5120      \n",
      "_________________________________________________________________\n",
      "dropout_19 (Dropout)         (None, 512)               0         \n",
      "_________________________________________________________________\n",
      "dense_25 (Dense)             (None, 1024)              525312    \n",
      "_________________________________________________________________\n",
      "dropout_20 (Dropout)         (None, 1024)              0         \n",
      "_________________________________________________________________\n",
      "dense_26 (Dense)             (None, 1024)              1049600   \n",
      "_________________________________________________________________\n",
      "dropout_21 (Dropout)         (None, 1024)              0         \n",
      "_________________________________________________________________\n",
      "dense_27 (Dense)             (None, 1)                 1025      \n",
      "=================================================================\n",
      "Total params: 1,581,057\n",
      "Trainable params: 1,581,057\n",
      "Non-trainable params: 0\n",
      "_________________________________________________________________\n"
     ]
    }
   ],
   "source": [
    "model = Sequential()\n",
    "model.add(Dense(512, activation='relu', input_dim = input_dim))\n",
…
